best_model.pt (torch, 730022 bytes, 16 tensors)

weight f4 [32, 3, 5, 5]
000000 ba 59 8a 38 eb 45 e2 38 2c 77 00 39 eb b9 83 38
       6.597066e-05 0.00010789543 0.00012251426 6.281197e-05
000010 b1 f4 f3 b7 26 6e 7d 38 10 89 b8 38 fc 64 ac 38
       -2.90818e-05 6.0422484e-05 8.7993336e-05 8.220409e-05
000020 41 5e ac 37 b0 4a 80 b8 41 db 3c 38 32 80 40 38
       2.0547888e-05 -6.117427e-05 4.502689e-05 4.589576e-05
000030 cb a1 53 b4 95 43 92 b8 ff ca 09 b9 2e ee 66 38
       -1.9709766e-07 -6.974411e-05 -0.0001314096 5.5058095e-05
000040 9a 1b d2 37 28 88 50 b8 15 9c 08 b9 c7 dd 48 b9
       2.5046804e-05 -4.971787e-05 -0.00013028116 -0.00019156105
000050 bd 2d b4 38 5a e3 4a 38 cf 2d 11 b8 9e e2 08 b9
       8.591588e-05 4.837229e-05 -3.4613357e-05 -0.00013054392
000060 e9 db 53 b9 11 b0 7f 37 25 8e 42 38 f9 61 7d 38
       -0.00020204451 1.5240178e-05 4.6385587e-05 6.0411145e-05
000070 04 03 71 37 cb 5f 53 b8 9a e2 47 36 d5 24 d8 37
       1.43654215e-05 -5.0395534e-05 2.978521e-06 2.5766358e-05
000080 c1 f5 ba 37 58 eb ea b7 7c 2a b1 b8 01 fa 75 b7
       2.2287366e-05 -2.8004564e-05 -8.447931e-05 -1.46613465e-05
000090 d9 d6 35 b7 a6 b9 3e b8 58 1a d2 b8 58 b9 16 b9
       -1.0838464e-05 -4.547243e-05 -0.00010018487 -0.0001437416
0000a0 b1 9d 42 36 f3 23 9f b7 bf e6 9f b8 76 a7 16 b9
       2.9000041e-06 -1.8971017e-05 -7.6246906e-05 -0.00014367499
0000b0 50 14 4c b9 1d 6e 29 38 96 61 75 37 ca c5 52 b8
       -0.00019462523 4.039529e-05 1.4625859e-05 -5.0252107e-05
0000c0 6a 6a 0f b9 8d b4 52 b9 af d1 0f 39 3c 6e 2a 39
       -0.00013677185 -0.00020094421 0.00013715656 0.00016253529
0000d0 f5 8b 3f 39 bf 8c 14 39 e9 f9 ca 38 27 a9 c6 38
       0.00018267318 0.00014166812 9.67866e-05 9.472883e-05
0000e0 32 89 e0 38 8e 4d ea 38 b4 c6 77 38 c1 51 9e 37
       0.00010706707 0.00011172435 5.9074446e-05 1.8873137e-05
0000f0 a9 02 a7 38 b3 6e 9b 38 a8 dd 3a 38 0c 9a a0 b7
       7.963676e-05 7.411595e-05 4.455229e-05 -1.914522e-05
000100 89 35 4b b8 b7 3a 0d 39 1c be de 38 3f 04 42 38
       -4.844883e-05 0.00013468681 0.000106211955 4.625716e-05
000110 c4 4d 0e b8 2f 9a a3 b8 dc f7 50 39 35 2f 34 39
       -3.3927863e-05 -7.8011646e-05 0.0001992876 0.00017183724
000120 34 30 c8 38 ab 3a 24 b7 b4 fd a7 b8 df 1a ae b7
       9.545722e-05 -9.788821e-06 -8.0104364e-05 -2.075493e-05
000130 40 f3 9e b7 5a 92 8c b7 1e 33 de b6 d1 27 f6 b6
       -1.894834e-05 -1.675745e-05 -6.6220664e-06 -7.3360065e-06
000140 07 64 cb b7 ba cd 91 b7 14 30 8d b6 e7 07 0a 37
       -2.4246065e-05 -1.7381146e-05 -4.2077245e-06 8.227281e-06
000150 b0 d1 e4 36 40 83 c3 b7 70 c8 a5 b7 96 2f 40 b5
       6.8193403e-06 -2.330693e-05 -1.9762869e-05 -7.159482e-07
000160 1b 42 88 37 14 d4 81 37 c1 90 98 b7 64 34 e7 b7
       1.6243246e-05 1.5476755e-05 -1.8187218e-05 -2.7561742e-05
000170 1f 1e 24 b7 6d f3 82 37 68 8a b0 37 80 ff 60 b7
       -9.782175e-06 1.5610562e-05 2.1045285e-05 -1.3410929e-05
000180 90 6b f0 b7 1b 4f 91 b7 4a 7c 5f 37 6d 65 ca 37
       -2.8660317e-05 -1.7322183e-05 1.3320774e-05 2.4127507e-05
000190 a5 76 1b b7 7a 40 52 b7 a0 cf 83 b7 11 54 4e b7
       -9.266344e-06 -1.25319875e-05 -1.57131e-05 -1.229813e-05
0001a0 9c 94 b4 b7 f1 05 fd b7 5c f8 e9 b7 74 f7 90 b7
       -2.1526874e-05 -3.0162717e-05 -2.7891416e-05 -1.7281367e-05
0001b0 85 be 15 b7 16 c3 8d b7 a0 42 39 b8 cf c0 42 b8
       -8.925451e-06 -1.6899354e-05 -4.4169487e-05 -4.643277e-05
0001c0 af 3e f3 b7 c2 44 79 b7 c9 9a ad b7 cc 62 52 b8
       -2.8997047e-05 -1.48575655e-05 -2.0695285e-05 -5.0159913e-05
0001d0 19 b6 8e b8 c9 bb 5e b8 d0 6d fc b7 b8 86 f6 b7
       -6.805006e-05 -5.3103813e-05 -3.0091876e-05 -2.9388219e-05
0001e0 00 96 4c b8 b0 6f 95 b8 ca 0d 85 b8 4f d4 11 b8
       -4.877709e-05 -7.125677e-05 -6.3445026e-05 -3.476842e-05
0001f0 d1 85 ef b7 57 fe 02 38 76 d7 ea 37 c6 3f d7 37
       -2.8553333e-05 3.1231288e-05 2.7995306e-05 2.5659694e-05
000200 60 03 e4 37 77 9b 8a 37 1a e9 b2 37 06 71 b1 37
       2.718129e-05 1.6523276e-05 2.13278e-05 2.1152675e-05
000210 2b ba f2 37 09 ff 09 38 25 73 bd 37 2f 2d 56 37
       2.893534e-05 3.2900865e-05 2.2584174e-05 1.2765914e-05
000220 e8 9d 09 37 f2 aa bd 37 5c 83 05 38 97 de c5 37
       8.202602e-06 2.2610158e-05 3.183201e-05 2.3587882e-05
000230 63 d5 98 36 a2 5a 54 b7 7d 59 af 35 d1 10 a4 37
       4.5547945e-06 -1.2657287e-05 1.306456e-06 1.9558154e-05
000240 bf 07 90 37 99 bb 6f b6 1a 95 c5 b7 da 92 77 b7
       1.7169745e-05 -3.5722971e-06 -2.355366e-05 -1.4756539e-05
000250 48 82 13 37 da 9f 48 37 7b 3c 63 bd 33 f1 dc bd
       8.792216e-06 1.1958147e-05 -0.0554776 -0.107881926
000260 9d 54 c0 3d 5f a9 e4 3d cf 40 84 3d aa e8 ad bd
       0.09391139 0.111651175 0.06457674 -0.08491643
000270 5a 06 95 bd 18 77 86 3d c0 7b 37 3f 20 8c 52 3d
       -0.07276602 0.06565684 0.716732 0.051403165
000280 eb 1d df bd 96 a5 15 bd 35 6f c9 bd 83 82 95 3d
       -0.10894378 -0.03653487 -0.09835664 0.07300284
000290 43 8b 51 3e 43 f9 00 be 84 49 99 bd a8 bb 2a 3b
       0.2046328 -0.12595086 -0.07484725 0.0026051793
0002a0 2f 63 13 be 20 80 0d bd 3f c8 84 bd fe dd 81 be
       -0.14393304 -0.034546018 -0.064835064 -0.2536468
0002b0 97 83 96 bd c6 e6 99 bc 87 7a 8f bd f3 87 28 3d
       -0.073493175 -0.0187868 -0.07005792 0.041145276
0002c0 c7 46 06 bc 25 fb 0f bd 6c 10 61 bd c7 42 6d bd
       -0.008195586 -0.03515162 -0.0549473 -0.057925012
0002d0 cf 04 3e 3d 22 d3 02 3d ea 90 4c bd b4 9c 46 3e
       0.046391305 0.031939633 -0.04994289 0.19395715
0002e0 fe ca 1f bd 83 80 d1 bb d8 1e 8d 3d 6a a4 9b be
       -0.039011948 -0.0063934936 0.068906486 -0.30398875
0002f0 45 af 83 bd 4d f2 4c 3d f9 a1 fa 3c 67 b5 aa 3d
       -0.064299144 0.050035764 0.030594813 0.08335381
000300 6d 1e 41 3d a6 4a f4 bd c2 87 43 bc 79 ea dc 3d
       0.047148157 -0.119283006 -0.011934223 0.107869096
000310 fc 53 af bc 22 2a 05 3d 25 24 bb 3d 96 f7 a5 3c
       -0.021402352 0.032510884 0.091377534 0.02025966
000320 d0 a3 7b 3d 13 46 a5 3d e2 85 1a bd 7c de a8 bd
       0.06143552 0.08070006 -0.037725337 -0.082455605
000330 fc 90 9e bd d6 b9 31 3c 6e ef 21 3d f7 32 57 be
       -0.07742497 0.010847529 0.03953498 -0.21015535
000340 ae f7 7c 3d 20 f7 c5 bd 81 59 57 bc 24 87 cf 3d
       0.061759643 -0.09666276 -0.013143898 0.10133198
000350 24 70 cd be 81 0c 00 be a5 2b 68 3b 3a 6b ed 3c
       -0.4012462 -0.1250477 0.0035426405 0.028981794
000360 3a c1 32 3e 6b 73 57 3d f6 bb 80 bd 56 f5 b4 3b
       0.17456523 0.052600306 -0.06285851 0.0055224104
000370 8a dc e7 3d db 68 10 3d df 62 ae 3d ce 0e 03 3e
       0.11321361 0.035256248 0.08514952 0.12798616
000380 ed 7a 87 3c ff 3d 9d b9 41 36 4a 3a dd 41 e3 3a
       0.016538108 -0.00029991564 0.0007713773 0.0017338354
000390 57 15 27 3b 72 8f 7a 3b 91 2e 17 ba b1 5f 53 39
       0.0025494897 0.0038232473 -0.0005767132 0.00020158176
0003a0 93 3e 5a 3a b8 05 e6 3a 19 d8 76 3b 58 b0 86 ba
       0.00083253643 0.0017549312 0.0037665425 -0.0010275943
0003b0 a0 2e 4b ba c4 04 b1 b9 50 4b 26 3a ea 19 24 3b
       -0.0007750783 -0.00033763621 0.000634362 0.002503986
0003c0 8f 2a 8e ba 7d 23 c6 ba 50 b3 ca ba 11 bb 31 ba
       -0.0010846424 -0.0015116778 -0.0015464816 -0.0006779889
0003d0 0b e1 8d 3a 99 d0 0c ba e8 58 d3 ba c5 6f 13 bb
       0.0010824514 -0.00053716596 -0.0016124519 -0.002249704
0003e0 f5 8d c6 ba de de 67 39 00 9b 1a ba c3 9f ec 39
       -0.0015148508 0.00022112901 -0.00058977306 0.0004513246
0003f0 61 b2 c3 3a 6c 55 04 3b 3f 0c 3e 3b 83 00 51 ba
       0.001493048 0.0020192517 0.0028998998 -0.00079727935

bias f4 [32]
000000 3a d1 2d b9 ee f1 e1 b8 7d 6a 5f 3f 09 e6 8b bb
       -0.00016576509 -0.00010773899 0.87271863 -0.0042693657
000010 3d 58 01 b5 5e 66 90 bc 48 71 0b 3e cd 1e 15 3d
       -4.818465e-07 -0.017626937 0.13617432 0.036406327
000020 e6 51 25 bd 92 82 02 bd 08 78 f8 3c 62 09 ce 38
       -0.040361308 -0.031862803 0.030330673 9.824593e-05
000030 2b 8c 4a ba 65 b2 99 3c 81 08 01 bd 23 e0 44 b2
       -0.0007726575 0.018761823 -0.03150225 -1.1459664e-08
000040 36 ca 71 bd a4 d8 17 39 0d 6e 4f bd aa 1f 13 bd
       -0.059030734 0.00014481187 -0.050642062 -0.03591887
000050 42 63 0a b6 23 7b 52 3e 88 69 c2 3e 92 62 0a 3e
       -2.0621378e-06 0.20554785 0.3797114 0.13514164
000060 02 41 5c b6 e0 85 fa 3d bc 01 84 bc b1 1e 93 3e
       -3.2820394e-06 0.12232566 -0.016114108 0.28734353
000070 9f 43 b8 3d 57 09 5d 3d 9c 87 d0 3d 02 cc 0d bc
       0.08997273 0.053963985 0.101821154 -0.008654596

weight f4 [32]
000000 2d f5 b1 38 2b f2 09 b6 b7 bc 29 3f eb 3f 06 3b
       8.485685e-05 -2.0555551e-06 0.6630358 0.0020484875
000010 95 88 64 36 c9 ca 5f 3e 9c eb a6 3e 7b 39 ac 3e
       3.4054149e-06 0.218547 0.3260163 0.33637604
000020 5d d9 32 3e 24 f9 a1 3d a0 c0 2f 3e 69 c9 a9 b9
       0.1746573 0.07908848 0.17163324 -0.00032384254
000030 56 b2 2d 3a 51 7e 04 3f a9 19 0a 3e 49 e6 36 b6
       0.00066260004 0.51755244 0.13486351 -2.7254157e-06
000040 69 c8 61 3e b6 14 7a 39 39 b3 16 3d 91 4a e7 3d
       0.22049107 0.00023849573 0.036792014 0.11293519
000050 cc c9 31 b6 9a b6 be 3e 6e f7 ea 3e a3 51 08 3f
       -2.6492517e-06 0.3724869 0.458919 0.5324957
000060 86 4a 53 37 76 e4 79 3e 90 fd dc 3e d6 d9 dd 3e
       1.2593931e-05 0.24403557 0.43162203 0.43330258
000070 98 71 c0 3e 2a 19 55 3e fb 15 83 3e 0f 1c 4a 3d
       0.37586665 0.2081038 0.25602707 0.049343165

bias f4 [32]
000000 31 41 a0 b8 3a 67 ee 3a 43 8e 73 bc c8 0a 08 3a
       -7.6415374e-05 0.0018188723 -0.014865461 0.0005189595
000010 11 5c 7b 39 a6 21 1e bd ea 23 08 3d 80 3b 83 3d
       0.00023971523 -0.03860631 0.033237375 0.06407833
000020 47 86 14 bd 29 fc 89 3c fc bb 8b bd b4 0b dc 39
       -0.03626087 0.016843872 -0.068229645 0.0004197039
000030 bb 8f 3d 3a ee a2 7e bd e5 d6 bd 3b 57 1b 89 b4
       0.00072311953 -0.0621671 0.0057934397 -2.553813e-07
000040 0c bc 16 bd 9a 16 b7 39 c3 b5 b2 bb 42 4c 75 3c
       -0.03680043 0.0003492132 -0.0054537966 0.014971795
000050 3a 36 77 ba b4 d4 7c bd f1 68 20 3d 94 28 84 3b
       -0.00094303826 -0.061726287 0.03916258 0.0040331576
000060 5e 07 26 38 f5 6e b0 3c 3b 4f 9b bd 39 29 84 3b
       3.9584345e-05 0.021537283 -0.075834714 0.0040332344
000070 1b 0a 48 bd 38 f6 48 bd 5a db 19 bc 83 43 4f 3b
       -0.048837762 -0.049062937 -0.009390676 0.0031625933

running_mean f4 [32]
000000 35 a2 3b 3b b9 27 65 39 04 d8 6b 3f c9 bc d5 3c
       0.0028630618 0.0002185394 0.9212649 0.026090996
000010 67 4c 8c 39 ed be 77 3e c2 d0 71 3e 84 93 9a 3e
       0.00026759805 0.24193926 0.23614791 0.3019067
000020 cd 7e 35 3e c6 a8 08 3e 3d 87 68 3e b4 ba 9b 3c
       0.17724152 0.13345632 0.2270784 0.019009925
000030 7b 6a b8 3c d3 85 ca 3e 7b 64 47 3e 07 f3 22 36
       0.022511711 0.39555225 0.19471924 2.4281342e-06
000040 e9 34 f6 3d 13 ba 03 3d cd b6 da 3d fc d0 d2 3d
       0.120218106 0.032159876 0.10679398 0.10293767
000050 03 75 25 39 52 44 d5 3e 0e 3f 07 3f 81 66 f1 3e
       0.00015779216 0.41653687 0.5283059 0.47148517
000060 91 f5 55 39 e3 a9 af 3e 55 d5 c5 3e c9 8b cb 3e
       0.00020404744 0.343093 0.38639322 0.39755085
000070 56 d7 d1 3e 36 f9 bb 3e 4c c2 8c 3e 38 3d 18 3e
       0.409846 0.3671357 0.27491987 0.14867103

running_var f4 [32]
000000 5b 40 2d 37 2f 8d 3e 33 cb 41 a7 3e 50 1d 3d 3a
       1.03265875e-05 4.4366228e-08 0.32667384 0.0007214146
000010 0d ef 6b 33 c7 6e 61 3d a8 84 65 3d b8 6a da 3d
       5.4932617e-08 0.055037286 0.056034714 0.10664886
000020 51 63 e4 3c 62 fc 99 3c 8a f2 7f 3d 82 b4 9f 39
       0.027879389 0.018797103 0.062487163 0.00030461332
000030 3d f9 18 3a e0 b6 88 3e 97 07 13 3d 94 9e 1a 2d
       0.0005835479 0.26702023 0.03589591 8.789098e-12
000040 09 e5 bd 3c 8c dc 3e 3a ea 91 05 3c 1e 50 63 3c
       0.023180502 0.0007280789 0.008152464 0.013874082
000050 61 54 d0 32 40 cd 4f 3e d2 8e 70 3e 1e 97 9e 3e
       2.4252758e-08 0.2029314 0.23491982 0.30974668
000060 df de 47 33 66 39 0b 3e 2a c7 8e 3e 6f 53 02 3e
       4.6535998e-08 0.13596115 0.27886325 0.1272714
000070 83 a8 62 3e 85 b3 d6 3d d6 4f a4 3d 88 0b a4 3c
       0.22134595 0.104834594 0.0802304 0.02002503

weight f4 [32, 32, 3, 3]
000000 db 28 0b b9 d6 7d 03 b9 eb 5c bd b8 35 54 d3 b8
       -0.00013271293 -0.00012540011 -9.0295296e-05 -0.00010076949
000010 30 eb b4 b8 49 b9 62 b8 ba e5 2e b8 94 40 07 b8
       -8.626876e-05 -5.405516e-05 -4.1698782e-05 -3.224665e-05
000020 31 7f d2 b6 a3 78 30 ba a7 3f 27 ba 0e f1 2e ba
       -6.2732947e-06 -0.00067318435 -0.00063800294 -0.0006673493
000030 5a f1 2d ba d7 2b 25 ba 7a 7c 2d ba d8 1c 33 ba
       -0.00066353905 -0.0006300783 -0.0006617975 -0.0006832606
000040 b3 c7 29 ba 6c a5 31 ba 88 33 8c 3c 08 3f ce bb
       -0.0006476596 -0.0006776664 0.017114416 -0.006294135
000050 25 40 8a bc 2e 17 04 3e 49 1c dc bc 9a 4d d6 bc
       -0.01687629 0.12899467 -0.026868956 -0.02616005
000060 a0 37 3f 3d 21 df f1 bc cd 9f 76 bc e2 bf 9b 3a
       0.046683908 -0.029525341 -0.015052748 0.0011882747
000070 89 ab 3e 3a 35 fc f4 b9 07 f0 37 3a 80 86 8e 3a
       0.00072734855 -0.00046727216 0.0007016663 0.0010873824
000080 21 5a 92 39 7b 3b 6e 3a 49 54 b0 3a 19 f0 6d 3a
       0.0002791444 0.0009087843 0.0013452853 0.000907661
000090 50 0c ab b8 2d 38 a3 b8 fe 30 ac b8 fb df a5 b8
       -8.156209e-05 -7.782909e-05 -8.2107246e-05 -7.909533e-05
0000a0 cd cc 9e b8 42 9d a8 b8 54 e5 ab b8 60 3e a4 b8
       -7.572174e-05 -8.040156e-05 -8.196631e-05 -7.831748e-05
0000b0 08 c4 ad b8 64 2f 1c bb dc c1 92 3b a1 15 db bb
       -8.2857965e-05 -0.0023831958 0.0044786762 -0.006685928
0000c0 be 1e 0c 37 06 a0 4b 3c 40 55 0e 3c 30 9f 68 3a
       8.351808e-06 0.012428289 0.008687317 0.00088738184
0000d0 4b e1 e4 3b 66 b0 be bb 59 f8 c9 bc b0 0f a3 3a
       0.006984865 -0.005819368 -0.024654554 0.0012440588
0000e0 65 8e 18 bc e7 f4 14 bd fb 98 9a bb 59 35 2f 3b
       -0.009311293 -0.03636637 -0.0047179437 0.0026734679
0000f0 40 f8 81 bc 8b 07 bc 3c 1d cc 44 3d fb 93 f6 bc
       -0.015865445 0.022952816 0.04804622 -0.03009986
000100 ab d7 2e ba 65 62 96 bb 5f 10 10 3d 37 61 3b 3d
       -0.000666971 -0.0045893663 0.035171863 0.04574701
000110 13 24 2e 3c 7e 8d c9 bb 9d 50 4e bc 44 29 85 bc
       0.010628718 -0.0061509004 -0.012592462 -0.016255029
000120 b2 c2 ee bc 75 f8 d7 bc 64 3c e1 bc fe 6d 6f 3a
       -0.029145572 -0.02636359 -0.027494617 0.00091335166
000130 a9 61 02 bc ad d9 70 bc 66 a2 d9 3c 2f b0 4a 3c
       -0.007957854 -0.014700335 0.026566695 0.012371107
000140 a9 33 2e bb a2 12 2a bc 7b f6 43 bc 7d 3d e7 bb
       -0.0026581085 -0.010380419 -0.011960621 -0.0070568905
000150 e9 a5 ac 39 95 ed 72 bb 26 58 6f bb 61 e5 89 b9
       0.0003293001 -0.003706788 -0.0036521046 -0.00026301577
000160 ef 88 ba bb d1 b4 ef bb 47 3b da ba 18 3f e3 3a
       -0.0056925933 -0.007315256 -0.0016649746 0.0017337529
000170 42 65 b1 bc c3 de e4 ba 81 73 97 3a c6 52 4a bc
       -0.021654729 -0.0017461408 0.0011554809 -0.012348836
000180 c3 de 07 bc c3 9a 30 bc 5c b6 5c bc ee ce 21 3a
       -0.008292857 -0.010779086 -0.013471212 0.00061724975
000190 df bc 14 3a 53 c2 ef 39 12 2e 24 3a 82 69 19 3a
       0.0005673896 0.00045730415 0.00062629685 0.00058522087
0001a0 c4 11 f9 39 fc 3f 33 3a c4 82 25 3a 04 16 03 3a
       0.00047506217 0.00068378425 0.0006313736 0.0005000534
0001b0 c0 b3 01 ba 86 57 ed b9 19 d6 ec b9 6e 23 0a ba
       -0.00049477443 -0.00045269373 -0.00045172943 -0.00052695617
0001c0 7c 36 ef b9 4e 96 ca b9 0a e8 f9 b9 ed c6 ba b9
       -0.00045626226 -0.00038640428 -0.00047665864 -0.00035624896
0001d0 eb 8e 63 b9 28 c1 30 bd 86 cd cf bb 64 eb 8e bc
       -0.00021701648 -0.04315296 -0.006341639 -0.017446227
0001e0 34 f7 48 bb 5a d2 07 3c 6d 11 84 3c be e3 ba b9
       -0.0030664923 0.008289898 0.01612159 -0.00035646366
0001f0 47 85 e2 3c 07 df 49 3d e9 a7 c0 bc 8a 72 e3 bc
       0.027651442 0.04928496 -0.023517566 -0.027764577
000200 97 47 07 bd ba 04 e0 bc ae 42 03 bd 90 d0 06 bd
       -0.033027258 -0.027346004 -0.032046013 -0.032913744
000210 ca 3e d0 bc fb 63 f1 bc 6c 27 04 bd 6e 81 1a 36
       -0.025420565 -0.02946662 -0.032264158 2.3023126e-06
000220 ea f5 07 36 bf dd 13 36 cd 82 2f 36 94 b0 1d 36
       2.0259708e-06 2.203378e-06 2.6153168e-06 2.3497605e-06
000230 08 a2 2a 36 34 4d 2b 36 45 eb 18 36 82 a4 24 36
       2.5426289e-06 2.5525924e-06 2.278671e-06 2.453366e-06
000240 e6 8c ec 3b 02 19 c5 3b da ee 96 bb 79 64 8b 3c
       0.007218945 0.006014944 -0.00460611 0.017015683
000250 d4 a1 8a 3c e5 3e 1b bb 36 78 92 3c 75 ac 71 3c
       0.016922869 -0.002368861 0.017879587 0.01475059
000260 b6 8a 69 bc 5a 24 01 ba 25 1d e8 b9 0b 79 af b9
       -0.014254263 -0.0004926376 -0.00044272203 -0.00033468785
000270 97 d0 09 ba 58 6b f4 b9 5e 69 b9 b9 4d d6 1b ba
       -0.00052572176 -0.00046619284 -0.00035364454 -0.0005944714
000280 67 fb 10 ba 99 f7 e0 b9 66 40 9e bb 10 29 33 bc
       -0.0005530626 -0.00042909084 -0.0048294542 -0.010935083
000290 3c cb 2c bc dd bd a8 3b 34 7f 8d ba 80 07 3f bb
       -0.010546502 0.0051495866 -0.0010795356 -0.0029148757
0002a0 f3 e0 33 3c 7d e1 e4 3b 43 ad 59 3b 6e cb 4f ba
       0.010978925 0.006984888 0.0033214844 -0.0007926737
0002b0 69 18 3f bc d3 dd e0 bc dc 74 58 bc b6 4d 84 bc
       -0.011663535 -0.027449524 -0.013211455 -0.016150337
0002c0 6b fd ee bc 6a 7c fa bb 66 e0 86 bc de 06 ec bc
       -0.029173573 -0.007644226 -0.016464423 -0.028811868
0002d0 22 c9 c7 39 a2 50 bb 39 95 01 c4 39 14 e9 c6 39
       0.00038106093 0.00035727496 0.00037385212 0.0003793916
0002e0 a2 01 ba 39 da 95 c2 39 87 b3 ca 39 6c ef bc 39
       0.000354779 0.00037114212 0.000386622 0.00036036537
0002f0 54 94 c4 39 cf dd 67 3b 44 5e 44 bc f4 4e 8d bc
       0.00037494546 0.003538001 -0.011985365 -0.017249562
000300 bf b6 44 bb 30 9b 02 bc ef 2a 56 3c 57 79 79 3c
       -0.0030016152 -0.00797157 0.01307176 0.015226684
000310 02 44 a3 3b e3 30 08 3d 3c 3a 9a bb c5 97 c5 bc
       0.0049824724 0.033249747 -0.004706649 -0.02412022
000320 3e 0b 29 3c 2d a4 ae 3c 00 87 c5 bc e3 41 64 bc
       0.010317622 0.02131852 -0.024112225 -0.013931724
000330 1f da 05 3d d3 00 a7 bc b1 1c f5 bc 34 56 18 3c
       0.03267872 -0.020386135 -0.029920908 0.009297896
000340 68 88 4c bc 91 0f 9d ba 24 84 e0 3c b7 5c 68 3c
       -0.012483694 -0.0011982789 0.02740676 0.014182261
000350 7a 15 ab bb 2b 47 5c 3c 3c 2e e1 ba c6 8a 84 bc
       -0.005221066 0.013444702 -0.0017179917 -0.016179454
000360 f3 f0 2e b8 2d 2e 1d b8 d6 91 1c b8 29 12 35 b8
       -4.1709234e-05 -3.747472e-05 -3.732912e-05 -4.3170676e-05
000370 65 f3 1f b8 f4 42 1e b8 54 44 3c b8 1d f6 26 b8
       -3.8135233e-05 -3.773249e-05 -4.488633e-05 -3.9806695e-05
000380 cf 61 24 b8 54 25 4a bc 58 36 b7 3c c6 64 ab 3c
       -3.919174e-05 -0.012338001 0.02236478 0.020922076
000390 4c b3 58 ba f7 70 e4 3c c4 db ae 3c 44 49 70 bc
       -0.00082664634 0.027885897 0.021345027 -0.014665905
0003a0 60 09 db ba e8 d6 97 ba 32 a4 a7 bc be 03 9b ba
       -0.0016711168 -0.0011584433 -0.020464037 -0.0011826677
0003b0 18 e6 cd 3b c2 1c dc bc c1 f2 1b 3b d9 c9 4a 3c
       0.006283533 -0.026869182 0.0023795816 0.012377226
0003c0 a6 56 ad bc 38 55 8b 3c 22 e3 4e 3d 90 ea 9d 3c
       -0.021159481 0.017008409 0.05050958 0.019276887
0003d0 19 50 2b 3b 6d cb 58 3b e4 a7 c7 3c bd cf 33 bc
       0.0026140271 0.0033080236 0.024372049 -0.010974822
0003e0 39 21 2c bc be 6a 2a bc 29 d9 ad bc 6f 6d 20 bb
       -0.010505968 -0.010401426 -0.021221714 -0.002447929
0003f0 0c 0a 67 bc 67 bb 05 3c 3a 5b 2b 3d 52 dc af bb
       -0.014101516 0.008162356 0.041835047 -0.0053668404

bias f4 [32]
000000 88 ae 05 bd 8b 14 06 bd a9 60 4f bc e0 15 43 bd
       -0.03263715 -0.032734435 -0.012657323 -0.047628284
000010 33 c1 ac bd 85 f8 12 bc 8a de 86 bd 51 fd 30 bd
       -0.08435287 -0.0089703845 -0.06585415 -0.04321033
000020 5d d9 80 3d 0e c8 13 bc 4b be de 3c 6b 98 1a 3c
       0.06291459 -0.009019865 0.027190348 0.009435753
000030 b0 c8 bc bc 43 b7 a8 3d db 9b 35 3d 66 b6 48 3d
       -0.023044914 0.082380794 0.04433809 0.049002074
000040 8a 42 68 bd db 76 10 bd 36 67 26 bd d8 18 7c bd
       -0.05670408 -0.0352696 -0.040625773 -0.06154713
000050 c8 32 07 3c 86 ea 06 bd 20 ae 56 bd 0c 86 4c bd
       0.008251853 -0.032938503 -0.052412152 -0.049932525
000060 13 31 68 3d 2e 15 34 3d 25 4e 83 bc c4 ec d3 bc
       0.056687426 0.04396551 -0.016028473 -0.025869735
000070 49 34 40 bd eb 64 50 bc 06 48 89 bd ba 62 9e bc
       -0.046924863 -0.012719373 -0.067031905 -0.019334186

weight f4 [32]
000000 c5 f5 c1 3e cf 78 a8 3e ea 58 05 3f fc 99 b2 3e
       0.3788282 0.3290467 0.520888 0.34883106
000010 73 e5 9f 3e d8 d0 ae 3e e1 cc c6 3e e0 bb 00 3f
       0.31229743 0.3414371 0.38828185 0.50286674
000020 26 73 d5 3e d7 d8 71 3e 45 d3 c2 3e 47 3f a7 3e
       0.41689414 0.23617874 0.3805181 0.32665464
000030 df 85 62 3e fb 47 da 3e 89 28 1c 3f 94 9b 08 3f
       0.2212138 0.42633042 0.6099935 0.53362393
000040 97 3c f1 3e 38 b1 e1 3e 6c 59 97 3e 6c 63 86 3e
       0.4711654 0.4408052 0.2956041 0.26247728
000050 3b 20 a7 3e e0 e3 c9 3e de a4 fb 3e 7e cb b5 3e
       0.32641777 0.39431667 0.4914922 0.35506815
000060 85 42 b9 3e 7d f1 a9 3e f7 ef 91 3e 49 ec 6d 3e
       0.36183563 0.33192053 0.2850339 0.23234667
000070 6b e4 9d 3e 13 a7 4e 3e 02 5d 09 3f 1f 71 b5 3e
       0.30838332 0.20180921 0.53657544 0.35437867

bias f4 [32]
000000 df a5 48 bd 8f 92 00 3d d7 b6 1f bd 99 1f cb 3c
       -0.048986312 0.03138977 -0.03899273 0.02479534
000010 1d 8c f9 bd f1 1e ff bc 33 e7 25 bd 95 ac 1b bc
       -0.121849276 -0.031142684 -0.040503692 -0.009501596
000020 71 fa 08 3d 76 bb 52 bd e0 77 a4 3a 25 86 9a bb
       0.033441965 -0.051448308 0.0012547933 -0.0047156983
000030 73 9c 01 bd f0 43 66 bd ee c2 60 bd 6c d8 95 bd
       -0.031643342 -0.056217134 -0.0548734 -0.0731667
000040 8a d8 00 3d 70 ad 2f 3c cb 12 5f bd cf 9f 2c bd
       0.031456508 0.010722503 -0.05446128 -0.042144593
000050 be 58 4c bc e2 44 f4 bd 12 f5 3a 3c 47 d8 3d 3a
       -0.01247233 -0.11927201 0.011410968 0.00072420057
000060 8f 40 5e bc d2 4e 43 bc 6d 1f d8 bc ab 7b 8e bc
       -0.013565197 -0.011920648 -0.026382172 -0.017392954
000070 53 00 e1 3b 19 3e d2 3a 74 d4 77 bd ef 12 c9 3b
       0.0068664937 0.0016040235 -0.060505345 0.0061362903

running_mean f4 [32]
000000 4b 1d 92 3d b0 e2 4e 3d dc 3c 10 3e b4 ff a8 3d
       0.071344934 0.050509155 0.14085716 0.082518965
000010 7a 04 9d 3d d5 1e 84 3d 50 40 72 3d 85 ea 05 3e
       0.076668695 0.06451193 0.059143364 0.13077743
000020 bc cd 2e 3e 5c c9 91 3d 35 6c e4 3d af 73 c5 3d
       0.17070669 0.071184844 0.11153451 0.096412055
000030 db 3a 58 3d 91 e4 24 3e 97 1f 8c 3e b5 91 55 3e
       0.052790504 0.16102816 0.2736785 0.20856364
000040 c7 4a 97 3d 83 53 84 3d 54 2d 64 3d fb 3b 8a 3d
       0.073873095 0.06461241 0.05570729 0.067497216
000050 c5 1a 9c 3d a6 e9 8e 3d be 52 94 3d 62 6a b0 3d
       0.076222934 0.06978159 0.07242344 0.08614041
000060 33 6f 1a 3e fa eb c4 3d 18 cb 61 3d 9d 8d 39 3d
       0.15081482 0.096153215 0.055125326 0.04530107
000070 d0 d6 5b 3d 5a 4a 28 3d 6e a6 dd 3d 1b 57 af 3d
       0.053671658 0.041086532 0.108227596 0.08561536

running_var f4 [32]
000000 2b c2 b3 3b ca 0a 31 3b 42 7a 8a 3c 9b e2 00 3c
       0.005485793 0.0027014487 0.016904 0.007866527
000010 27 35 42 3b 1b 1f 89 3b f8 8a 34 3b 34 c9 a5 3c
       0.0029633732 0.0041846163 0.0027548652 0.020237543
000020 f5 c4 ba 3c 8b 86 a8 3b 4c eb 3a 3c ee 82 04 3c
       0.022798995 0.005142992 0.011408638 0.008087857
000030 2b 6f 36 3b 03 ad 88 3c 56 87 1e 3d 5a 09 ba 3c
       0.0027837257 0.01668406 0.038703285 0.022709537
000040 af 67 d7 3b 26 8b b9 3b c8 29 46 3b a2 09 97 3b
       0.0065736393 0.0056623397 0.0030237306 0.0046093026
000050 8f c6 d6 3b fb f4 8c 3b f1 c9 e2 3b 2d 2a ff 3b
       0.0065544317 0.004301665 0.006921046 0.00778701
000060 e0 83 4d 3c 37 8b e9 3b 99 40 6c 3b 27 76 16 3b
       0.0125436485 0.0071271914 0.0036049245 0.0022958608
000070 9c 70 46 3b 5c 79 cc 3a 8a 52 73 3c 2e a8 cc 3b
       0.0030279523 0.0015600133 0.014851222 0.0062456345

weight f4 [16, 32, 3, 3]
000000 07 76 66 bd e7 04 ec b9 1a 0d bd bc a2 95 8d bd
       -0.056264903 -0.0004501708 -0.023077536 -0.06913306
000010 a5 f5 c4 bc 37 61 6d bc 43 ee 6b bd 45 85 19 bd
       -0.024042914 -0.01448851 -0.05760027 -0.03748061
000020 a8 61 f3 bb 4c 41 21 bb ee b7 8f 3b 27 fa cd 3b
       -0.007427413 -0.002460557 0.00438594 0.006285924
000030 8c b5 61 bc a6 48 0e bc ae 62 c9 bb 6f 10 38 bc
       -0.013776194 -0.008684313 -0.0061457967 -0.011234387
000040 b5 70 69 bc da af 80 bc 99 16 c0 3b a2 24 19 bd
       -0.014248063 -0.015708853 0.005862069 -0.03738845
000050 1f b7 91 bd 68 f1 a4 bb 58 35 27 bc 80 08 bc bd
       -0.07115006 -0.0050336607 -0.010205589 -0.09181309
000060 d1 7b 4b bd 03 81 20 bd d1 0c 86 bd fd cd 23 bc
       -0.049678627 -0.039185535 -0.06545413 -0.009997842
000070 b7 9c 58 bc 37 31 aa ba 0c 3f 91 bc 06 3e 60 bc
       -0.0132209575 -0.0012984638 -0.017730258 -0.013686663
000080 1d d1 5e 3a 60 6a 01 ba 41 c8 88 bb d4 3e 62 3b
       0.0008499788 -0.00049368106 -0.0041742628 0.0034522312
000090 c9 7a b2 bc 72 82 f2 bc b7 c8 9b bc 31 e6 4c bc
       -0.021787064 -0.029603217 -0.019016607 -0.012506054
0000a0 c2 b9 17 bd 35 7f 9a bc 37 bf 5e bb 04 36 47 bd
       -0.037042387 -0.018859485 -0.0033988485 -0.048635498
0000b0 7d 21 11 bd a0 f6 79 bc 25 1a f2 bc ce 08 1d bd
       -0.035432328 -0.015256554 -0.029553482 -0.038338475
0000c0 3f b7 65 bc f1 ed f8 bc 7c 57 49 bd 7a b7 90 bc
       -0.01402074 -0.030386897 -0.049155697 -0.017665613
0000d0 fe 11 d6 bc 56 3e 3b bd f4 43 c4 bc 06 64 97 bc
       -0.026131626 -0.045713745 -0.023958184 -0.018480312
0000e0 7a ae fd bb 2f 57 06 bd 33 11 fa bc bb 6d d6 bc
       -0.0077417465 -0.03279799 -0.03052578 -0.02617537
0000f0 b3 c1 10 bd 08 83 d0 bc 1a 89 be bc 0d bc 75 bc
       -0.035340976 -0.025453106 -0.023258734 -0.014998448
000100 b3 a3 93 3c 37 62 08 bc d7 95 cb bb 36 ce 6c bc
       0.018022394 -0.0083241975 -0.0062129307 -0.014453461
000110 77 a6 9f 3c dc 3e e4 bc d7 f3 a8 bc 98 75 ff 3c
       0.019488556 -0.027862005 -0.020624084 0.031184003
000120 c7 90 b7 3c f1 f7 1e 3c 76 6b 29 3d 85 9d 33 3d
       0.022407902 0.0097026685 0.04136225 0.043851394
000130 e0 40 eb 3c ec e2 78 3d d2 2e d4 3c 6e eb b4 3c
       0.028717458 0.060763285 0.025901232 0.022084918
000140 13 b4 b8 3c b8 3c d0 bc b1 4c 32 bd 98 af ff bc
       0.022546804 -0.025419578 -0.04353017 -0.03121166
000150 b4 f4 cb bc b2 9a 36 bd 6b e6 10 bd 63 b8 d7 bc
       -0.024896957 -0.044581123 -0.035375994 -0.02633304
000160 87 bf 0e bd 5b 5d 03 bd aa 36 67 3d 21 db 64 3d
       -0.034850623 -0.032071453 0.056448616 0.05587304
000170 41 86 3d 3d 59 5e 68 3d ba 26 ba 3d 13 17 2a 3d
       0.046270613 0.056730602 0.09089418 0.04152591
000180 e5 3f 74 3d c2 7a 04 3e 8e 0f b8 3c 34 78 b8 bc
       0.059631247 0.12937453 0.022468355 -0.022518255
000190 4d 96 db bc 33 3a e0 bc ae f4 03 bd 6c fb d4 bc
       -0.026805067 -0.027371502 -0.032215767 -0.025998794
0001a0 0f 3e f8 bc 39 78 b3 bc 84 11 5b bc ff 75 20 bc
       -0.03030303 -0.021907913 -0.013370875 -0.009793757
0001b0 8c 36 a3 bc 3b c7 8b bc 58 87 7d bc b3 41 d6 bc
       -0.01992347 -0.017062774 -0.015474163 -0.026154375
0001c0 9e 6c c2 bc 80 ac c2 bc ee f7 cd bc 01 b5 de bc
       -0.023733433 -0.023763895 -0.025142636 -0.027185919
0001d0 44 a2 f7 bc 47 69 8a bc 2a 1f f9 bb 98 bf 02 bd
       -0.030228741 -0.016895903 -0.007602592 -0.031921
0001e0 99 0a f3 bc 42 87 fa 3a 91 aa cd bc c8 2b c2 bc
       -0.02966814 0.0019113796 -0.025105746 -0.023702517
0001f0 c9 cd 5c bc 74 f1 65 bc c6 53 4d 3d 5e 2e 0e be
       -0.013476797 -0.014034618 0.05012872 -0.13884875
000200 56 33 34 bd 5c 3c 02 3e 00 ce ea bd 31 2f ac bd
       -0.04399427 0.12718338 -0.11465073 -0.084074385
000210 8f 40 5b 3d 37 71 81 bd 13 53 c0 bd 6f 1b 41 bd
       0.053528365 -0.06320422 -0.09390845 -0.047145303
000220 ed bf 31 3d ce ca 59 3c 6a b2 57 bd 03 24 45 bb
       0.043395925 0.013292981 -0.052660383 -0.003008128
000230 5e 04 65 3d eb 04 c1 bc 28 37 25 bc 10 43 e0 3d
       0.055912368 -0.023561915 -0.010083951 0.10950291
000240 b9 47 be 3d c8 75 28 3d 29 15 2e 3d 3e 3b 8f 3d
       0.09291024 0.04112795 0.04250065 0.069937214
000250 17 8d 5c 3d a2 9a 4e 3d 3a 25 36 3d 45 46 94 3d
       0.05384549 0.050440438 0.044469096 0.07239965
000260 8e 5c 46 3d 71 5d 38 bc 97 24 0c bb 23 15 40 bc
       0.04842811 -0.011252747 -0.0021384114 -0.011723789
000270 7c b2 5c bc 58 f1 3c bc ff 91 97 bc 81 18 c2 bc
       -0.013470288 -0.01153215 -0.018502234 -0.023693325
000280 93 bc ff bc 8f 0c 91 bc c7 a2 59 bb 6a 8e 94 bc
       -0.031217849 -0.017706184 -0.0033208595 -0.018134315
000290 0f 50 b6 bc 83 f9 1f bc a9 dd cb bc de 47 d5 bc
       -0.022254972 -0.009764078 -0.02488597 -0.026035246
0002a0 07 bf 5f bc e8 62 da bc 20 e6 b9 bc 8a 6f e7 3c
       -0.013656384 -0.02665849 -0.02269274 0.028251428
0002b0 4d 38 df 3c 50 b4 80 3b c1 51 1a 3d 35 b4 12 3d
       0.027248526 0.003927745 0.037675623 0.03581639
0002c0 19 65 03 3b d2 60 11 3d b6 74 27 3d e4 12 4d 3c
       0.0020049273 0.035492726 0.04088279 0.012516711
0002d0 4b 95 00 bc 05 8f 32 bc 9a 75 eb bb ca 2b 21 bc
       -0.007848094 -0.010898356 -0.00718565 -0.0098371
0002e0 bd 8f 15 bc 2e 9a f3 bb e5 98 0e 3b 3d 3c 46 3b
       -0.009128508 -0.007434151 0.0021758613 0.0030248307
0002f0 7d b7 d1 3b 16 9b 0c bd 61 a2 a6 bc 5a ac b7 bc
       0.0064000473 -0.03432759 -0.0203411 -0.02242105
000300 36 c9 6b 3b e0 81 0f bd bb ea 04 bd 2e 3a cb bb
       0.0035978085 -0.035035968 -0.03245042 -0.006202004
000310 1e 90 29 bd b2 bc 1b bd b4 7d 4a 3c 25 0b 12 3d
       -0.041397206 -0.03802175 0.0123590715 0.03565516
000320 80 0a 9e 3c a3 9d e4 bb 13 5d 66 3d 6e da 7b ba
       0.019292116 -0.0069767996 0.056241106 -0.00096074387
000330 6f e9 60 3c 24 44 83 3b b5 41 68 3b 98 85 f5 bc
       0.01372753 0.0040059257 0.0035439555 -0.029970929
000340 cd b4 f1 bc 82 6d ce bc be 3e 0e bd 40 2f 07 bd
       -0.029505158 -0.025198702 -0.034727804 -0.033004045
000350 85 03 09 bd a5 59 25 bd dd c1 27 bd 85 6d 0d bd
       -0.033450622 -0.040368695 -0.040956367 -0.034528274
000360 61 9b 1d bb c8 c3 a2 bc 53 45 e0 3c b3 43 5f 3c
       -0.0024048912 -0.019868746 0.027376806 0.013626981
000370 1f 34 40 bd 64 82 27 3d ea eb 01 3d db d2 42 bd
       -0.046924707 0.040895835 0.031719126 -0.04756437
000380 69 90 ac 3c be 78 c1 bc 57 fe cf bc ab 9f 7f bc
       0.021064954 -0.023617145 -0.025389833 -0.015602033
000390 c5 c8 d9 bc 0b 46 fd bc 44 54 a7 bc 91 b6 9c bc
       -0.026584992 -0.030917188 -0.020425923 -0.019130023
0003a0 4a 2b b9 bc f3 8c b3 bc d2 a3 4c 3c 49 f5 68 3c
       -0.02260365 -0.021917796 0.01249023 0.014218637
0003b0 23 ef 80 3c d6 fd a3 bb f0 b7 a8 ba 5e aa 37 39
       0.01573903 -0.005004625 -0.00128722 0.00017515707
0003c0 dc 35 66 bc 9d 17 46 bc 8b be 13 bc 39 19 07 3b
       -0.014050927 -0.012090591 -0.009017597 0.00206144
0003d0 ed da a9 3a e6 b5 15 bb 06 e1 80 bb 2c 64 11 bb
       0.0012958922 -0.0022844016 -0.003933075 -0.0022184951
0003e0 09 10 db ba 6a b0 97 bb 42 39 eb bb 35 c3 cc bb
       -0.0016713153 -0.0046291845 -0.0071784565 -0.0062488564
0003f0 58 11 31 3b 86 a1 8e bc 5e e2 73 bc db 7c 37 bb
       0.0027018394 -0.017411005 -0.014885513 -0.0027998004

bias f4 [16]
000000 34 b2 8f be c3 c9 73 be 60 fc 70 be f4 73 01 be
       -0.28065646 -0.23807435 -0.23533773 -0.12641889
000010 87 b1 78 be af b3 7b be c1 9f 78 be 85 67 67 be
       -0.24286471 -0.24580263 -0.24279691 -0.22598083
000020 6f 4f 63 be 73 23 5a be 91 5f 5f be c1 ae 80 be
       -0.2219827 -0.21302585 -0.218138 -0.25133327
000030 14 fc 3b be 6a 60 71 be f6 13 26 be 73 5a 53 be
       -0.18357879 -0.23571935 -0.16218552 -0.20639972

weight f4 [10, 16384]
000000 6a 82 1c bb 1d 57 bc 3b 9a 44 00 bb e8 98 c4 39
       -0.0023881444 0.0057476894 -0.001957214 0.00037497957
000010 94 ea c9 bb 4a 04 d9 bb 4a 93 21 3a 7f 3f 83 bb
       -0.006161997 -0.0066228257 0.00061636104 -0.004005372
000020 a4 62 6d bb 5c c9 cc bb 32 07 dc bb 76 51 b9 b9
       -0.0036222124 -0.00624959 -0.006714725 -0.00035346643
000030 92 6a fd bb 51 c1 f3 b6 a9 fb 63 3b 56 46 94 bb
       -0.0077336514 -7.2644693e-06 0.0034787452 -0.0045249863
000040 10 87 97 bb e4 0a d2 bb 82 e8 b5 ba d0 c5 b0 3b
       -0.004624255 -0.0064099897 -0.0013878497 0.005394675
000050 ef 20 5b 3b 94 79 d3 b9 72 7a 52 3b f7 9a 8f 3b
       0.0033436378 -0.0004033564 0.003211644 0.004382487
000060 56 8a c8 3b a2 d8 93 3b 0b 5e 68 3b 06 21 c5 3a
       0.0061200066 0.0045119086 0.0035456445 0.0015039749
000070 66 f0 0a 3a 22 0c 74 bb 96 98 cf ba 77 aa 3d 3b
       0.00053001044 -0.0037238677 -0.0015838321 0.0028940716
000080 13 7a 92 bb d9 0c 41 3c 0c 0c 89 bb 7b b4 15 3b
       -0.004470119 0.011782848 -0.0041823443 0.002284317
000090 6d 00 b9 bb 97 89 17 bc 0e 1c ae 3b 3f 74 30 b7
       -0.0056458027 -0.009249113 0.005313403 -1.0517483e-05
0000a0 c7 f0 f0 3a 55 6f cd bb a1 ff b9 bb 94 ff 81 3b
       0.0018382304 -0.0062693753 -0.0056762253 0.003967235
0000b0 1b 80 20 bb a2 78 1e 3b b4 94 16 3c 59 88 17 3a
       -0.002449042 0.002418079 0.009190727 0.000578051
0000c0 d1 09 33 bb 9a 5d f5 bb f1 af c1 bb b2 d9 91 3c
       -0.0027319083 -0.007487965 -0.0059108664 0.017804
0000d0 c3 07 43 3c f5 7e 25 bb be 53 94 3b e0 43 6a 3c
       0.011903706 -0.0025252674 0.0045265844 0.014298409
0000e0 24 80 e4 3b 8d 4e a2 3b b6 0e e9 3b 57 57 88 3b
       0.0069732834 0.0049532116 0.0071123494 0.0041608023
0000f0 5a b3 e4 3b 12 43 1d 3a 03 f1 73 bb fa a6 42 3c
       0.006979388 0.0005999069 -0.0037222512 0.011880631
000100 36 af 06 bb 4b 14 75 3b db f3 07 bc bf a0 03 bc
       -0.0020551211 0.0037396129 -0.008297886 -0.00803393
000110 8d 2c dc ba fa c5 33 bc b8 62 65 bb 0c 45 46 bb
       -0.0016797945 -0.010972494 -0.0035001468 -0.0030253557
000120 76 73 37 bb 44 8b f6 bb c9 10 93 bb 68 ff ae ba
       -0.0027992404 -0.007523926 -0.004488085 -0.0013351263
000130 4a 01 f9 ba a6 d7 3e bb a6 d0 52 3a 0f b9 71 bb
       -0.0018997577 -0.0029120236 0.00080419553 -0.0036883985
000140 fd a2 d6 bb d2 15 a4 bb 6a ae 2e bc 8c 9f 00 3c
       -0.0065501914 -0.005007484 -0.010661701 0.007850539
000150 65 fa 7f 3c 69 cf c7 bb 9d 2b b6 ba 7d 6b 15 3c
       0.015623664 -0.0060977233 -0.0013898496 0.0091198655
000160 f8 e1 f9 ba b2 c4 5f bb 19 17 88 3a d7 64 91 ba
       -0.0019064536 -0.003414434 0.001038286 -0.0011092675
000170 0a fb 5b 3c 3b 0b d9 3b f4 23 d2 bb 15 d0 08 ba
       0.013426552 0.006623653 -0.0064129774 -0.0005218995
000180 9a bc 2d 3b 2f 51 36 3a a1 49 d0 bb f8 4c 29 bc
       0.002651012 0.00069548463 -0.0063564335 -0.010333292
000190 be 71 71 bb 02 03 01 bc 46 f8 25 bc 62 e3 53 bb
       -0.0036841477 -0.007874252 -0.010129994 -0.0032331576
0001a0 b0 49 20 bc 6a 28 92 bb 9e 9f e1 bb 09 9d af bb
       -0.0097831935 -0.004460384 -0.006885483 -0.005359296
0001b0 ac 9f e2 bb bc 69 47 38 40 4c 3e ba 2f 29 84 bb
       -0.006916007 4.754377e-05 -0.0007259287 -0.00403323
0001c0 8a 0d 82 bb 5e 4b ba 3a 24 47 c6 bb f6 9f 23 bb
       -0.003968899 0.0014213135 -0.006050961 -0.002496717
0001d0 2c 4c 2d 3c d6 f9 4a 3b a0 a9 e1 bb 01 4b 20 3b
       0.010577243 0.0030971668 -0.006886676 0.0024458768
0001e0 04 56 1c 3b 67 8f de bb 13 ae dd bb c5 21 39 bb
       0.002385498 -0.0067919972 -0.006765136 -0.0028248888
0001f0 89 c5 f7 3a 5e 48 93 3b ef 11 9e bb 45 ba 94 bb
       0.0018903475 0.004494711 -0.004823915 -0.0045388066
000200 ee 2a 51 3b 59 9e 82 3b 23 66 a0 bb 4a dd ff bb
       0.0031916457 0.0039861617 -0.004894988 -0.007808362
000210 94 5f 6a bb b6 c9 7c bb 60 07 df bb c5 e6 b2 bb
       -0.0035762535 -0.0038572378 -0.006806299 -0.005459639
000220 0d 73 28 bc 64 3f d5 bb c7 9d 26 bc df 86 e6 bb
       -0.0102813365 -0.006507801 -0.010169453 -0.007035121
000230 a3 38 3f bc 16 49 ce bb 33 4c 33 bb e7 e1 b7 bb
       -0.011671218 -0.0062953336 -0.002735865 -0.0056116465
000240 70 30 20 bb 4e 77 1b bb 31 88 2e bb 28 e2 b8 bb
       -0.0024442933 -0.0023722234 -0.002663147 -0.0056421943
000250 69 72 c5 3a 44 b4 01 3c cc 86 f1 ba d7 2a 93 3a
       0.0015064004 0.007916514 -0.0018427013 0.0011227977
000260 1c a8 8f 3a 65 fb bc bb e5 9c 3e bc 6d 24 37 bc
       0.0010960135 -0.0057672733 -0.011634086 -0.011178118
000270 aa 89 d9 bb 5a 78 14 3b 64 6f a6 bb e9 e1 1b bc
       -0.0066387253 0.0022654743 -0.0050791968 -0.00951431
000280 6e 8c 09 3b f2 97 13 3c 57 43 9c bb 5b e4 06 bb
       0.0020988244 0.009008395 -0.0047687697 -0.0020582888
000290 c1 72 01 bc 82 18 85 ba 31 ef 7a bb 5e 6b e1 3a
       -0.007900895 -0.0010154399 -0.0038289542 0.0017198136
0002a0 a3 ce d8 ba c0 2c 01 bc 39 a1 2f bc 6d 92 1d bc
       -0.0016541075 -0.007884204 -0.010719591 -0.00961743
0002b0 5e 92 4d bc 94 fd 90 bb ad 69 50 bb 1b 5c 98 bb
       -0.012547104 -0.00442476 -0.003180127 -0.0046496517
0002c0 b5 33 38 3b 93 ba 05 3a 1b fb b2 bb de 29 c7 bb
       0.0028106992 0.0005101349 -0.005462063 -0.006077989
0002d0 2c 59 c5 3a 56 65 a0 ba eb bb d4 b9 0d 62 c0 ba
       0.0015056483 -0.0012237232 -0.000405758 -0.0014677659
0002e0 77 fb b8 bb 14 da ec bb 74 b3 a9 bb 4b 4a fa bb
       -0.0056452113 -0.0072281454 -0.005178863 -0.007638251
0002f0 e0 64 b4 bb bd 77 eb 3b 45 70 37 3b 1e 31 db bb
       -0.0055051893 0.007185905 0.0027990502 -0.006689205
000300 9a 6b 26 3a 1e 37 1a 3c 33 0c 07 bb e5 8c 18 bb
       0.00063484313 0.009412555 -0.0020606637 -0.002327734
000310 62 e8 9e bb 82 44 41 ba 18 30 98 bb a6 9a d7 3a
       -0.0048494795 -0.0007372574 -0.004644405 0.0016449287
000320 31 53 92 3a 2a 7f 2a bb 9a 19 2f bc 37 f4 15 bc
       0.0011163709 -0.0026015737 -0.010687256 -0.009152464
000330 01 8a ae bb 84 18 e7 3b 0d b0 03 bb aa 2b 1e bc
       -0.00532651 0.007052483 -0.0020093948 -0.009653965
000340 ac 01 7a 3a cb 0e 9a 39 37 a0 e6 bb 59 ee 1c bc
       0.00095369923 0.0002938419 -0.007038142 -0.009578311
000350 48 f2 f3 39 86 98 e9 3a da c6 e5 ba 03 99 03 3b
       0.00046529085 0.0017821945 -0.0017530576 0.0020080216
000360 b2 8f c0 bb 84 e6 1a bb 2e cc 06 3b 19 fd 73 ba
       -0.005876505 -0.0023635933 0.0020568478 -0.0009307429
000370 b5 b6 24 bb 2d f4 30 3c d0 8b df 3b cf 67 c4 bb
       -0.0025133316 0.010800404 0.006822087 -0.0059938203
000380 47 ff 8b 39 a8 a3 10 3c 16 96 fe 3b d3 15 20 3c
       0.00026702342 0.008828081 0.0077693565 0.009770828
000390 61 66 e2 3a 6e ad 95 b9 c5 05 5f bb 0b 81 67 3a
       0.0017272943 -0.0002854871 -0.0034030539 0.00088311796
0003a0 7d 5c 1a 3c cc 39 f2 3a dc aa c0 bb d7 82 0b bc
       0.009421465 0.001848036 -0.005879743 -0.008515081
0003b0 e5 d5 1d bb a4 74 03 3c 2b b4 d7 3b 6d b9 15 bc
       -0.002408379 0.008023415 0.006582757 -0.009138447
0003c0 96 f3 0c 3b 75 fd 9a ba 9c 86 b2 bb ae 91 47 bb
       0.0021507493 -0.0011824804 -0.0054481756 -0.0030451822
0003d0 d7 2e 52 bb 4f 8e 8d 3a f0 98 8c bb 50 64 b3 b8
       -0.0032071376 0.0010799858 -0.0042906925 -8.55407e-05
0003e0 7f 7f a4 bb 93 d2 c2 35 a6 b0 7e bb e3 35 0c 3c
       -0.0050200815 1.4515412e-06 -0.0038862615 0.0085577695
0003f0 24 51 35 bb 93 bf 22 3c 4a 40 89 3c 26 69 00 bb
       -0.0027666772 0.00993337 0.016754288 -0.0019593923

bias f4 [10]
000000 b5 5c 25 3e 34 79 ee bd 80 ba 0f 3e e6 a4 a9 3d
       0.16148646 -0.116442114 0.14035988 0.08283405
000010 6f 66 bc 3d 00 68 20 3a e8 a6 12 be 66 db 80 bd
       0.09199225 0.0006119013 -0.14321482 -0.06291847
000020 60 0e d1 3c 8e 6c b9 bd
       0.02551955 -0.09053908
